s2_fc/s2_fc_model.tflite (tflite, 806496 bytes, 10 tensors)

arith.constant f4 [3, 256]
-0.08098931 0.106842175 0.1450268 0.1322241 0.03701545 -0.060364664 0.0071380506 0.18373999
0.12315931 0.0099501405 -0.06941412 -0.060161736 -0.08007696 -0.06384241 0.18302381 -0.07326576
0.16456954 0.1533176 -0.051827885 -0.1079393 0.15987538 0.17855467 0.19416374 0.15486966
-0.059692916 -0.013280053 -0.07595292 -0.086662985 -0.09823285 0.0073313317 -0.028233858 0.18742184
-0.03928482 0.17057727 -0.040611908 0.096257344 -0.09031261 0.17172551 0.17132232 0.23104294
0.11436418 0.14575744 0.082390934 -0.014091121 0.08882029 -0.0028081383 0.19516426 0.09860911
-0.10814919 -0.06366689 -0.06737774 -0.079218134 0.05181942 0.19050135 0.08684413 0.24203444
-0.0012045635 -0.08330098 -0.061709885 -0.11021534 -0.047166497 -0.078877844 -0.090032734 -0.08697997
-0.1381841 0.14578636 0.19247727 0.18042962 -0.1447707 -0.07755039 -0.4865099 0.18341829
0.16722517 0.046016317 0.013609962 -0.06035024 0.11269545 0.092357054 0.2014407 0.10988882
0.092746034 0.014801533 0.13295346 -0.07866741 0.18462889 -0.058667704 0.085858464 -0.042910848
-0.13392752 0.111933604 0.1273414 -0.008716003 -0.10681195 -0.093034156 0.004048653 0.21971299
0.13001546 0.010311785 -0.05420229 -0.08226381 0.091589145 -0.11268012 0.19566147 -0.045189224
-0.06318601 -0.061839644 0.172142 0.22197478 -0.051995043 0.18454395 0.024347855 -0.05865916
-0.041893844 -0.1845843 -0.15627643 -0.024870029 -0.013588875 0.13572714 -0.052422952 -0.067056224
-0.046411157 -0.057602927 -0.051815942 0.07241611 -0.068221115 -0.024778599 0.13218963 0.09253959
-0.045409624 -0.042585984 -0.117978364 -0.035686214 -0.09972097 0.15073177 0.06935814 0.13252266
-0.05552909 -0.087409556 -0.0071896855 -0.05782391 -0.052169483 0.17229559 -0.13899988 -0.06559138
0.06606671 0.18797584 0.14151838 -0.081149966 -0.010224586 0.13851713 -0.03752924 0.18128616
-0.045466553 -0.046479672 0.04348989 -0.06618588 0.107094094 0.099987224 0.15848365 0.07944238
-0.08499075 -0.02953782 0.15633652 -0.054986607 -0.005632064 -0.09139672 -0.07613365 0.19564845
-0.107644275 0.13928087 -0.084822595 0.10248791 0.12617774 -0.036883045 -0.079054385 0.11260201
0.18031247 0.17797595 0.04896439 0.19236419 0.14942324 0.22715609 -0.080851376 -0.031453285
0.19939584 -0.008071308 0.16777678 0.2084806 -0.06373715 0.15599003 -0.029802384 -0.091940805
0.29340255 0.1850072 0.12995513 0.13669899 -0.08588159 0.14826712 0.21520247 0.07093821
0.13903095 0.09401776 -0.08893397 0.21173233 0.17742524 -0.008430985 0.23986423 0.19485575
-0.09462164 0.13725083 0.06955667 -0.04033901 -0.060665864 0.21944955 -0.11496992 -0.10600533
0.14865853 0.013744432 0.20684235 -0.117178075 0.19149604 0.15384306 0.18405104 0.1647313
0.13900593 -0.09927514 0.10796598 0.18297225 0.13443275 -0.099069044 -0.1280952 -0.0065217842
0.12723911 -0.10518778 0.11126868 0.13263012 0.011840764 -0.02332228 0.050239682 -0.057035457
0.019493185 -0.0028055753 0.12623537 -0.09730094 0.13897207 0.008501946 0.1197937 0.039010778
-0.1373462 0.013040767 0.23113237 0.08857588 0.16054468 -0.026706384 -0.066172235 -0.07233783
00000000: b9dd a5bd 12d0 da3d e881 143e c165 073e
00000010: 839d 173d f040 77bd 4fe6 e93b 5626 3c3e
00000020: f33a fc3d ea05 233c fd28 8ebd 276c 76bd
00000030: 64ff a3bd cfbf 82bd 986a 3b3e 5c0c 96bd
00000040: eb84 283e 4aff 1c3e 7a49 54bd 480f ddbd
00000050: 5fb6 233e 09d7 363e dcd2 463e 2796 1e3e
00000060: 8f80 74bd 9494 59bc 348d 9bbd 5d7c b1bd
00000070: 4e2e c9bd ab3b f03b b14a e7bc 83eb 3f3e
00000080: 1fe9 20bd cfab 2e3e ac58 26bd 9222 c53d
00000090: d1f5 b8bd d0d8 2f3e 1e6f 2f3e 8596 6c3e
000000a0: c437 ea3d 7041 153e 94bc a83d 72de 66bc
000000b0: 6ae7 b53d be08 38bb 24d9 473e 93f3 c93d
000000c0: 537d ddbd c963 82bd 57fd 89bd 1e3d a2bd
000000d0: 9a40 543d c912 433e 56db b13d e0d7 773e
000000e0: 72e2 9dba b499 aabd 81c3 7cbd 95b8 e1bd
000000f0: a831 41bd b58a a1bd 1563 b8bd 8e22 b2bd
00000100: 2280 0dbe 0549 153e c318 453e 8bc2 383e
00000110: c53e 14be bdd2 9ebd d317 f9be 01d2 3b3e
00000120: 133d 2b3e 9b7b 3c3d 51fc 5e3c d031 77bd
00000130: dfcc e63d b225 bd3d 7946 4e3e 640d e13d
00000140: a2f1 bd3d 2182 723c f424 083e 611c a1bd
00000150: 5b0f 3d3e 8c4d 70bd 90d6 af3d 49c3 2fbd
00000160: 4c24 09be 723d e53d c965 023e 91cd 0ebc
00000170: 39c0 dabd b188 bebd 90aa 843b 71fc 603e
00000180: c622 053e c3f2 283c 3803 5ebd ee79 a8bd
00000190: 1793 bb3d d6c4 e6bd 7b5b 483e 5618 39bd
000001a0: ab67 81bd 914b 7dbd fe45 303e 5b4d 633e
000001b0: c1f8 54bd 17f9 3c3e 2775 c73c 9644 70bd
000001c0: e198 2bbd ab03 3dbe ee06 20be 3bbc cbbc
000001d0: dfa3 5ebc 0efc 0a3e 73b9 56bd c654 89bd
000001e0: a019 3ebd 0cf1 6bbd f43c 54bd e64e 943d
000001f0: 83b7 8bbd 7dfc cabc b85c 073e 6685 bd3d
00000200: 71ff 39bd a46e 2ebd a49e f1bd b52b 12bd
00000210: 823a ccbd 6e59 1a3e a40b 8e3d 05b4 073e
00000220: 7972 63bd c803 b3bd 7497 ebbb c4d8 6cbd
00000230: abaf 55bd 416e 303e fc55 0ebe c654 86bd
00000240: fc4d 873d bd7c 403e 32ea 103e f431 a6bd
00000250: 0685 27bc 6fd7 0d3e 43b8 19bd 14a3 393e
00000260: 233b 3abd 7861 3ebd 7422 323d 768c 87bd
00000270: 2654 db3d 1ac6 cc3d 8a49 223e b0b2 a23d
00000280: a10f aebd 4cf9 f1bc ae16 203e a339 61bd
00000290: 2d8d b8bb 342e bbbd f6eb 9bbd 1158 483e
000002a0: 9a74 dcbd a59f 0e3e 78b7 adbd 2ee5 d13d
000002b0: bd34 013e ad12 17bd 44e7 a1bd e29b e63d
000002c0: d5a3 383e 543f 363e e28e 483d 1efb 443e
000002d0: 6802 193e 9b9b 683e 6895 a5bd 29d5 00bd
000002e0: 6c2e 4c3e 853d 04bc adcd 2b3e f07b 553e
000002f0: 9f88 82bd dabb 1f3e 2124 f4bc 764b bcbd
00000300: dc38 963e 8772 3d3e f512 053e d2fa 0b3e
00000310: b0e2 afbd 56d3 173e 095e 5c3e 0d48 913d
00000320: 215e 0e3e 628c c03d 0323 b6bd 5cd0 583e
00000330: f6ae 353e 1d22 0abc f89e 753e 4488 473e
00000340: fec8 c1bd 7b8b 0c3e ba73 8e3d 853a 25bd
00000350: c57c 78bd 62b7 603e 5975 ebbd 5319 d9bd
00000360: f139 183e 5330 613c 7bce 533e 0ffb efbd
00000370: 8a17 443e 0989 1d3e e077 3c3e 52af 283e
00000380: 9257 0e3e c450 cbbd 451d dd3d 145d 3b3e
00000390: bda8 093e b6e4 cabd 632b 03be b1b4 d5bb
000003a0: f84a 023e b16c d7bd d5e0 e33d 31d0 073e
000003b0: c4ff 413c 5e0e bfbc 20c8 4d3d 039e 69bd
000003c0: 2cb0 9f3c bedd 37bb d843 013e b745 c7bd
000003d0: b24e 0e3e bf4b 0b3c 6656 f53d c4c9 1f3d
000003e0: 7ba4 0cbe f1a8 553c f7ad 6c3e 4567 b53d
000003f0: d365 243e 59c7 dabc 4f85 87bd db25 94bd

arith.constant1 f4 [256, 256]
-0.09655151 -0.053623315 -0.019895637 0.054315753 -0.070772976 0.004571861 -0.06977497 0.0065412545
0.008462844 0.012485218 -0.023007812 -0.024384582 0.02330198 0.10132543 0.07039362 0.035078906
-0.07317926 -0.007367393 -0.0468849 0.029971536 0.06014582 -0.086150154 0.1003851 -0.100047566
-0.07362871 -0.027212484 -0.04776309 0.059073526 -0.014850444 -0.061183274 0.090444975 -0.11342692
-0.096708685 -0.0005561287 0.0153533155 -0.11248666 -0.09948833 -0.022303076 0.072839186 0.086694814
-0.021899663 0.06907524 0.02788867 0.082006805 0.07814673 -0.058351874 -0.041171245 0.046695005
0.04357526 0.07095869 0.08121517 0.047503855 -0.016519956 -0.10365548 0.08075081 0.0816484
0.09977717 0.075556435 -0.11010193 -0.0636923 -0.1019044 -0.049363792 -0.08176474 -0.06276864
-0.026211543 -0.08671182 -0.047118116 0.073817335 -0.054083895 -0.06724477 0.048611023 0.013070439
-0.00985863 0.045438483 0.018451804 -0.036498472 -0.09787559 -0.009166921 0.07116452 -0.038025506
-0.024998225 -0.048719004 0.03715772 0.020757623 0.020080728 0.023640897 0.0455407 -0.046649102
0.034137756 0.023132255 -0.1087576 -0.100727275 -0.023807164 0.08217947 0.0050192242 -0.08414954
0.05304201 0.040166244 -0.007526041 0.04323695 0.03251044 0.061779764 -0.08427167 0.032353282
-0.10698942 -0.09846528 -0.037877914 0.009539718 0.06211554 -0.041733343 -0.024522841 0.08081571
-0.0796893 0.01977455 0.024412872 -0.025111152 0.0594609 0.046974454 0.04511898 0.021614268
-0.014381705 0.023556862 -0.07134386 -0.08486536 0.0076124277 0.09056514 -0.047799528 -0.11048207
-0.090188906 -0.09001658 -0.105656594 -0.0907727 -0.033266846 0.053798303 0.03580688 -0.05838865
-0.033994175 -0.04842587 -0.045216158 0.05829962 0.020166254 -0.0552605 -0.062150143 0.01657374
0.09582581 0.01315011 0.022226138 0.036136508 -0.10130625 -0.0010246912 0.058431137 0.08419834
0.004527214 0.07354606 -0.019413726 0.055839233 -0.049663484 0.046897132 -0.105106965 0.088800795
0.07825022 -0.017825816 0.003405778 -0.007887931 -0.054561306 -0.041379474 -0.05865769 0.030461105
-0.091224775 0.05803661 -0.0048942617 0.098382786 -0.06293848 0.024282046 -0.032059304 0.05907175
0.04676528 0.034028653 0.090948135 0.034553297 -0.0145741105 0.06899972 0.066061355 -0.10275735
0.07497759 0.05995764 0.011127122 0.053347126 -0.07358058 -0.073409975 0.082908094 -0.066850625
-0.110461794 0.048924133 -0.08790848 -0.08201908 0.06388346 -0.01719258 0.053895473 -0.08381096
0.056277804 -0.052492894 0.032631688 -0.064102046 -0.032351736 -0.04878063 0.036908515 0.08594193
0.07949273 0.016614672 -0.013583379 -0.10719775 0.034427166 -0.06378454 -0.03282695 -0.012584297
0.035127945 -0.109074615 -0.0068171695 0.029836623 -0.10911418 -0.09866113 -0.09863622 0.044663567
-0.011403507 0.051421147 0.064632535 0.0456398 0.038427226 -0.027399503 0.041154828 0.037004568
0.072000846 0.098551445 0.08075203 0.08923856 0.059651863 -0.10611199 0.004819665 -0.07338877
-0.046066325 -0.067075916 0.059443388 0.059953205 -0.07825484 -0.07900966 0.035818953 -0.0014829471
-0.0780552 -0.08401072 -0.043277573 -0.08459288 0.02189611 0.09774252 0.07775896 -0.071582414
00000000: ccbc c5bd 1fa4 5bbd 2dfc a2bc 327a 5e3d
00000010: 6cf1 90bd 8dcf 953b 2ee6 8ebd 0558 d63b
00000020: bea7 0a3c cd8e 4c3c e17a bcbc 2dc2 c7bc
00000030: cbe3 be3c b583 cf3d 882a 903d e6ae 0f3d
00000040: 02df 95bd 2c6a f1bb 620a 40bd de86 f53c
00000050: 775b 763d 7e6f b0bd b496 cd3d bde5 ccbd
00000060: a6ca 96bd b7ec debc 3ba3 43bd 15f7 713d
00000070: 474f 73bc 509b 7abd 373b b93d 5f4c e8bd
00000080: 340f c6bd 2ac9 11ba 798c 7b3c 685f e6bd
00000090: 8ac0 cbbd f1b4 b6bc b62c 953d 0d8d b13d
000000a0: ec66 b3bc 5277 8d3d c876 e43c 2ff3 a73d
000000b0: 650b a03d 6002 6fbd 2ea3 28bd 4343 3f3d
000000c0: f97b 323d ca52 913d 2454 a63d 6793 423d
000000d0: dc54 87bc 5349 d4bd ae60 a53d 4737 a73d
000000e0: f957 cc3d 55bd 9a3d 1f7d e1bd 1c71 82bd
000000f0: 41b3 d0bd b031 4abd 4674 a7bd d88c 80bd
00000100: 97b9 d6bc f795 b1bd edfe 40bd 8b2d 973d
00000110: 1387 5dbd a0b7 89bd 5a1c 473d 6525 563c
00000120: 1786 21bc b41d 3a3d 3d28 973c 6c7f 15bd
00000130: ff72 c8bd da30 16bc b4be 913d a2c0 1bbd
00000140: 14c9 ccbc 948d 47bd b232 183d e40b aa3c
00000150: 5780 a43c 8eaa c13c e388 3a3d 2113 3fbd
00000160: 08d4 0b3d db7f bd3c 4ebc debd 1a4a cebd
00000170: 3e07 c3bc b64d a83d 4e78 a43b 9856 acbd
00000180: 9442 593d 5c85 243d 029d f6bb 3a19 313d
00000190: ab29 053d c70c 7d3d a096 acbd e084 043d
000001a0: 451d dbbd 2aa8 c9bd df25 1bbd 7a4c 1c3c
000001b0: dd6c 7e3d 95f0 2abd 20e4 c8bc b582 a53d
000001c0: 2534 a3bd 3dfe a13c 81fd c73c e7b5 cdbc
000001d0: 468d 733d 4968 403d aece 383d 6810 b13c
000001e0: 3ea1 6bbc 52fa c03c bb1c 92bd e4cd adbd
000001f0: ac71 f93b 377a b93d 70c9 43bd 6c44 e2bd
00000200: f6b4 b8bd 9d5a b8bd 7c62 d8bd 0ae7 b9bd
00000210: d142 08bd 9c5b 5c3d 3caa 123d f028 6fbd
00000220: 7a3d 0bbd 345a 46bd 9434 39bd 95cb 6e3d
00000230: b333 a53c d658 62bd 2691 7ebd a7c5 873c
00000240: 5340 c43d 8f73 573c 9713 b63c e003 143d
00000250: a779 cfbd ee4e 86ba 7d55 6f3d 2e70 ac3d
00000260: 0659 943b 519f 963d 8909 9fbc aeb7 643d
00000270: f06b 4bbd 3517 403d 5242 d7bd 31dd b53d
00000280: a741 a03d 7207 92bc 7933 5f3b 613c 01bc
00000290: ad7b 5fbd 867d 29bd 0c43 70bd 9189 f93c
000002a0: 0ed4 babd ccb7 6d3d 0b60 a0bb ea7c c93d
000002b0: e4e5 80bd 24eb c63c 9e50 03bd 38f5 713d
000002c0: f38c 3f3d a161 0b3d 0443 ba3d c287 0d3d
000002d0: 40c8 6ebc ba4f 8d3d 2d4b 873d 7272 d2bd
000002e0: da8d 993d 2496 753d 884e 363c 8482 5a3d
000002f0: 6ab1 96bd f857 96bd b8cb a93d fbe8 88bd
00000300: cb39 e2bd ac64 483d 5c09 b4bd 9ff9 a7bd
00000310: 55d5 823d 74d7 8cbc 80c1 5c3d 15a5 abbd
00000320: 8e83 663d ca02 57bd cea8 053d ef47 83bd
00000330: 4183 04bd 33ce 47bd 622d 173d 5302 b03d
00000340: 16cd a23d 7e1b 883c d28c 5ebc 7e8a dbbd
00000350: 8003 0d3d 78a1 82bd 8d75 06bd 5e2e 4ebc
00000360: 52e2 0f3d 8362 dfbd 9062 dfbb ef6b f43c
00000370: 4177 dfbd d90e cabd c901 cabd 25f1 363d
00000380: c6d5 3abc fb9e 523d 105e 843d cdf0 3a3d
00000390: de65 1d3d ec74 e0bc f791 283d 1a92 173d
000003a0: 2e75 933d 57d5 c93d 5261 a53d b5c2 b63d
000003b0: 8355 743d 3e51 d9bd 48ee 9d3b da4c 96bd
000003c0: 0bb0 3cbd 195f 89bd e97a 733d 7e91 753d
000003d0: 1344 a0bd d1cf a1bd e5b6 123d 735f c2ba
000003e0: 68db 9fbd d00d acbd d343 31bd 083f adbd
000003f0: 795f b33c 3b2d c83d 1740 9f3d cd99 92bd

arith.constant2 f4 [256, 256]
0.0066792523 0.042106155 0.0019906797 -0.0737476 -0.062084254 -0.014277998 -0.020690091 -0.075444594
0.063390695 0.055716895 0.012231955 -0.045780193 -0.055266306 -0.036991052 0.049012884 0.05945647
0.039729897 -0.013914627 -0.042736113 -0.05651471 -0.01454868 -0.068716295 0.050350238 -0.01963159
-0.054483727 -0.16052788 -0.031034123 -0.06171731 0.00013529015 -0.029113268 0.07511324 -0.0056581683
0.054141425 0.045888327 -0.0906304 -0.001961674 0.035267692 -0.015950436 0.03757258 -0.059640054
0.017024226 0.051618073 0.1625101 -0.06861318 0.05340357 -0.03664283 0.02625809 0.009442574
-0.004058286 0.06314693 -0.10645736 0.07587017 0.042786065 0.111882 0.067702405 0.07048834
0.058708116 -0.0453999 0.14571182 0.040258247 0.0664313 0.05250455 -0.0055355825 -0.03549506
0.14231586 0.004649583 0.004845315 -0.044206407 -0.024118517 0.07233378 -0.038677793 -0.022606647
0.06256998 0.053037763 -0.0868389 -0.03927365 -0.043476537 -0.020064514 -0.082084745 -0.042730775
-0.12361848 0.04475435 -0.13915166 0.067860074 -0.036764488 0.037375115 -0.023391608 -0.0384533
-0.039723504 -0.0024801902 0.10364094 -0.008123928 -0.01166398 -0.023859244 0.05807094 0.09814587
0.026331693 -0.022536907 -0.043571897 0.04014901 -0.13618867 -0.011962019 0.084870815 0.025603492
0.04871503 0.005198227 -0.014684659 0.032181736 -0.09616142 -0.03943924 -0.07488741 0.039197266
-0.045349076 -0.056623753 0.04444856 0.13299774 0.0052280314 -0.005737972 0.045075852 0.010972493
0.06070593 -0.008903057 -0.015701933 0.031624172 -0.060144123 -0.01811185 -0.03403148 0.11294418
0.014437658 0.074288055 -0.030822117 -0.041099492 -0.09812874 -0.08704786 -0.085194126 0.011482371
0.14782423 -0.047047574 -0.020382138 -0.03996819 -0.061435666 0.063945256 -0.3586578 0.003971648
0.030696096 -0.032412633 -0.048753973 0.02718537 0.051909067 0.047405653 0.109891556 0.009407828
-0.061944548 0.02837518 -0.0667431 -0.034445167 -0.056786582 0.019523572 -0.04478579 0.079913445
-0.057286724 0.04160631 0.0643553 -0.058025397 -0.074086785 0.023948338 -0.10222442 0.09172996
0.09144926 -0.08546869 0.07131555 -0.0987369 0.02559854 0.03447525 -0.028484533 0.07071014
-0.054357063 -0.04502654 -0.029546803 -0.03937046 -0.029495444 -0.020886522 -0.023730757 -0.030194677
0.04492786 -0.037440635 0.027595382 -0.062382914 0.04176713 -0.0024916797 0.036203943 -0.0011920815
-0.019678274 0.0058904896 -0.03001086 -0.014362126 -0.017268581 0.06396643 -0.045220245 -0.035186455
-0.03434428 -0.020695157 -0.032307353 -0.00053713203 -0.00025427446 0.056581344 -0.06236934 0.057539552
0.040850542 -0.015159006 -0.063885786 -0.0066817407 0.08875498 -0.045546982 0.12353708 -0.11941472
-0.0037808046 0.061697416 0.051984355 0.009684596 0.003185066 0.075275615 -0.032501053 0.07509313
-0.05507118 -0.013504823 -0.06295071 -0.045987684 -0.0028754363 0.059246834 0.01527422 -0.11619514
-0.14706722 0.03375662 -0.016111044 0.08574819 0.039832316 0.045613483 0.04508003 -0.0034243346
0.0012229232 -0.0021776299 0.040952582 -0.06140765 0.061453138 0.08604952 0.057619262 0.058301143
0.12840374 -0.01788932 -0.048032984 -0.0136046875 -0.06846015 -0.023426462 0.01650353 0.03620241
00000000: a1dd da3b 8177 2c3d 1076 023b fb08 97bd
00000010: 0f4c 7ebd 44ee 69bc 447e a9bc b282 9abd
00000020: fbd2 813d 6637 643d 8a68 483c 0384 3bbd
00000030: ec5e 62bd ee83 17bd bcc1 483d a188 733d
00000040: d1bb 223d 2dfa 63bc 100c 2fbd f87b 67bd
00000050: 965d 6ebc 21bb 8cbd 0d3c 4e3d 6ed2 a0bc
00000060: 542a 5fbd 6c61 24be 463b febc 4acb 7cbd
00000070: acdc 0d39 f37e eebc f8d4 993d 2868 b9bb
00000080: 66c3 5d3d 66f5 3b3d 6e9c b9bd 6e8f 00bb
00000090: db74 103d 7daa 82bc b5e5 193d 2149 74bd
000000a0: 6476 8b3c 796d 533d 0c69 263e 1185 8cbd
000000b0: b4bd 5a3d cb16 16bd 351b d73c 07b5 1a3c
000000c0: 5ffb 84bb 2d53 813d 5106 dabd d261 9b3d
000000d0: 7140 2f3d 6422 e53d 8fa7 8a3d 315c 903d
000000e0: ec77 703d 3ff5 39bd 7b35 153e d5e5 243d
000000f0: 220d 883d 030f 573d d563 b5bb 4563 11bd
00000100: 40bb 113e 875b 983b 73c5 9e3b c711 35bd
00000110: 3294 c5bc bc23 943d 9b6c 1ebd 9331 b9bc
00000120: b124 803d 203e 593d 98d8 b1bd 68dd 20bd
00000130: 7414 32bd 565e a4bc 0c1c a8bd 7706 2fbd
00000140: b02b fdbd 5650 373d c67d 0ebe 39fa 8a3d
00000150: 5c96 16bd a616 193d c29f bfbc 3581 1dbd
00000160: 1db5 22bd b08a 22bb b341 d43d 391a 05bc
00000170: 471a 3fbc 7674 c3bc cbdb 6d3d b400 c93d
00000180: 90b5 d73c 529f b8bc 7278 32bd 4a73 243d
00000190: 0b75 0bbe 58fc 43bc c0d0 ad3d 6abe d13c
000001a0: 6989 473d e355 aa3b ed97 70bc ffd0 033d
000001b0: 47f0 c4bd 0a8b 21bd 925e 99bd 508d 203d
000001c0: f4bf 39bd 4fee 67bd b10f 363d 8f30 083e
000001d0: e84f ab3b 9905 bcbb 75a1 383d f9c5 333c
000001e0: c8a6 783d 21de 11bc 57a1 80bc 5988 013d
000001f0: af59 76bd 4d5f 94bc 9864 0bbd 474f e73d
00000200: ed8b 6c3c 5624 983d aa7e fcbc f157 28bd
00000210: b9f7 c8bd 2646 b2bd 427a aebd 8e20 3c3c
00000220: 3c5f 173e f5b4 40bd 71f8 a6bc afb5 23bd
00000230: f7a3 7bbd bbf5 823d ffa1 b7be 9924 823b
00000240: 6176 fb3c 1cc3 04bd 3fb2 47bd dab3 de3c
00000250: 9a9e 543d 6e2c 423d d30e e13d 4a23 1a3c
00000260: 91b9 7dbd 1173 e83c 9bb0 88bd 6016 0dbd
00000270: 0c99 68bd e6ef 9f3c 4e71 37bd a9a9 a33d
00000280: 7ca5 6abd 616b 2a3d b6cc 833d 0aac 6dbd
00000290: d0ba 97bd 4e2f c43c 095b d1bd ebdc bb3d
000002a0: c049 bb3d 350a afbd e30d 923d 9236 cabd
000002b0: 08b4 d13c eb35 0d3d 6558 e9bc 7ad0 903d
000002c0: 83a5 5ebd c06d 38bd 230c f2bc eb42 21bd
000002d0: 6ea0 f1bc 361a abbc 0167 c2bc d45a f7bc
000002e0: 4706 383d 5a5b 19bd b60f e23c 3a85 7fbd
000002f0: 0314 2b3d 734b 23bb 964a 143d 9e3f 9cba
00000300: 5534 a1bc 0205 c13b 56d9 f5bc 1f4f 6bbc
00000310: d776 8dbc d500 833d dd38 39bd ac1f 10bd
00000320: 96ac 0cbd e488 a9bc b754 04bd 52ce 0cba
00000330: 2450 85b9 d7c1 673d fe76 7fbd 98ae 6b3d
00000340: e652 273d 7b5d 78bc 8dd6 82bd 81f2 dabb
00000350: 2cc5 b53d 798f 3abd 0201 fd3d b48f f4bd
00000360: 60c7 77bb 6eb6 7c3d 8ced 543d 24ac 1e3c
00000370: 8abc 503b 1a2a 9a3d d31f 05bd 6dca 993d
00000380: 5192 61bd 5543 5dbc 4dec 80bd 955d 3cbd
00000390: d171 3cbb cfac 723d b940 7a3c b8f7 edbd
000003a0: ca98 16be 6244 0a3d 4ffb 83bc bf9c af3d
000003b0: 3627 233d 34d5 3a3d d6a5 383d cd6a 60bb
000003c0: 7e4a a03a 91b6 0ebb e5bd 273d 9786 7bbd
000003d0: 49b6 7b3d bb3a b03d 2d02 6c3d 2ecd 6e3d
000003e0: 457c 033e a08c 92bc 3cbe 44bd 32e6 5ebc
000003f0: d634 8cbd dae8 bfbc 6932 873c fa48 143d

arith.constant3 f4 [256, 256]
0.03333066 -0.07081193 0.045896947 0.03929913 -0.039128676 -0.03598409 0.010206741 0.071960896
-0.07021406 -0.058075383 -0.06880956 0.07075884 -0.09307149 -0.0537475 0.0057709995 0.015757922
0.03234609 -0.06340011 0.032088794 -0.0026349963 -0.04159954 -0.059646163 -0.0015197163 0.052080486
0.03962536 -0.0918637 -0.00982284 -0.15826836 0.03685135 -0.0026047386 0.0118267 0.024045745
0.010677387 0.03449548 0.026265504 0.03443438 0.005563947 0.015033503 0.07602309 -0.06310218
0.035950422 -0.0034374811 -0.09046381 -0.032915555 0.017892629 -0.03328028 0.02012593 -0.022573965
-0.016683638 0.031346012 -0.062263448 -0.017887449 0.06368901 -0.014091796 0.055214405 -0.034333184
0.07012043 -0.070190534 -0.033850703 0.07330847 -0.071484424 -0.013976502 -0.014724976 -0.22088476
0.03449987 -0.0034176004 0.06692672 0.06541686 0.0675334 -0.003905597 -0.107616074 0.012131219
0.08342135 -0.04303761 0.04936742 0.0403661 -0.06776986 -0.14235185 0.057190616 -0.0792759
-0.08006588 -0.015859488 -0.05550135 -0.015439625 0.13538527 -0.046924725 0.006910087 -0.00033701412
0.0027417075 -0.046257995 -0.011214087 -0.035464745 -0.04604251 0.013991002 0.018423332 -0.083539955
0.06228711 -0.094958715 -0.03699312 -0.07376501 0.0043795356 0.03985495 -0.041962758 0.0017461864
0.041941356 -0.21377711 -0.0138758235 -0.05676203 -0.107472144 -0.009796714 0.045320634 -0.0411561
0.13751085 -0.063374326 0.06080859 0.05770924 0.018371204 -0.006286303 -0.032921657 -0.061545502
0.016167851 0.035845775 -0.040453423 -0.005662272 0.057473317 -0.018880777 -0.049328156 -0.004042793
0.02254063 -0.060759194 -0.022916831 -0.16371171 -0.12848963 -0.007490195 0.017248273 0.05164066
0.028942425 0.003952682 -0.037594743 -0.11074178 -0.05495649 -0.010524385 0.03396515 -0.07367584
-0.17135172 0.047749467 -0.022024829 0.025169557 -0.048150964 0.052918863 -0.041671563 -0.043941054
-0.039855 0.010898092 0.014298433 0.116180725 -0.04925009 -0.035318743 0.060384993 0.06401924
-0.03886056 -0.042906813 -0.025975399 0.016079616 0.012396142 -0.00014961652 0.06827888 -0.05400174
0.07182279 0.023375813 0.0050324476 -0.053285163 0.04261715 -0.05552922 0.069115706 -0.045794923
-0.06021861 -0.09209015 0.010459074 -0.012442052 -0.16879784 -0.034104258 0.15774676 0.01773519
0.07168537 -0.03590604 -0.0012642295 0.0006440434 0.07092759 -0.05057651 -0.00900174 0.010533946
0.04981534 -0.13531476 -0.019567495 -0.1117382 0.0716373 -0.005391588 0.046308853 0.038716722
-0.055483684 -0.010187423 -0.052723307 -0.03262964 -0.054947678 -0.0070583443 -0.022795074 0.066140555
-0.022667537 0.05245505 0.027693149 -0.008109252 -0.062169082 0.08309964 0.019155232 0.10772758
-0.1458264 0.06841836 -0.044419948 0.069851406 -0.01139489 0.059439436 -0.004235921 0.107480854
-0.07320027 -0.09247457 -0.013670558 0.08205188 0.0620803 -0.06721674 -0.067056246 0.047722153
-0.040770337 -0.017248442 0.017405616 -0.060072947 0.046683706 -0.05021136 0.16825427 0.067209594
-0.12782566 -0.10021326 0.021514334 -0.049019173 -0.013384107 -0.13136803 0.06742359 -0.06896707
0.041499894 0.019696943 0.0049099103 -0.0119376825 -0.05629756 -0.035995256 -0.060015008 -0.05928953
00000000: bb85 083d d805 91bd 70fe 3b3d 20f8 203d
00000010: 6445 20bd 0e64 13bd 2d3a 273c 3c60 933d
00000020: 64cc 8fbd 74e0 6dbd 07ec 8cbd 03ea 903d
00000030: 449c bebd 5726 5cbd a71a bd3b c216 813c
00000040: 557d 043d ebd7 81bd 8a6f 033d e7af 2cbb
00000050: 4764 2abd 894f 74bd 3831 c7ba 5952 553d
00000060: 344e 223d 0923 bcbd faef 20bc 1a11 22be
00000070: 71f1 163d 43b4 2abb c6c4 413c 95fb c43c
00000080: 35f0 2e3c 224b 0d3d c12a d73c 100b 0d3d
00000090: c551 b63b 154f 763c feb1 9b3d b73b 81bd
000000a0: c040 133d 5d47 61bb 1745 b9bd 76d2 06bd
000000b0: 9093 923c e750 08bd 22df a43c 09ed b8bc
000000c0: 20ac 88bc ad64 003d f507 7fbd b388 92bc
000000d0: 626f 823d 47e1 66bc 8028 623d f4a0 0cbd
000000e0: 4d9b 8f3d 0ec0 8fbd 09a7 0abd c022 963d
000000f0: 6d66 92bd b3fd 64bc 0741 71bc 9d2f 62be
00000100: bc4f 0d3d d2f9 5fbb e010 893d 46f9 853d
00000110: f44e 8a3d 0bf5 7fbb d165 dcbd 05c2 463c
00000120: d0d8 aa3d 3448 30bd 7e35 4a3d ec56 253d
00000130: edca 8abd afc4 11be b540 6a3d 675b a2bd
00000140: 95f9 a3bd c2eb 81bc 6255 63bd 7bf6 7cbc
00000150: 70a2 0a3e 2434 40bd 036e e23b 45b1 b0b9
00000160: 38ae 333b 0679 3dbd 4abb 37bc 7b43 11bd
00000170: 1297 3cbd 843a 653c 87ec 963c ff16 abbd
00000180: c520 7f3d b779 c2bd 1986 17bd 1c12 97bd
00000190: 3582 8f3b f23e 233d 24e1 2bbd 4be0 e43a
000001a0: b3ca 2b3d 63e8 5abe 6c57 63bc 4d7f 68bd
000001b0: 5b1a dcbd 6682 20bc 21a2 393d 4c93 28bd
000001c0: a5cf 0c3e 66ca 81bd 6e12 793d 8660 6c3d
000001d0: 357f 963c 55fd cdbb dcd8 06bd 2317 7cbd
000001e0: 7172 843c 05d3 123d 7db2 25bd 958a b9bb
000001f0: 2469 6b3d dcab 9abc 520c 4abd 6879 84bb
00000200: 21a7 b83c a2de 78bd 14bc bbbc 0ba4 27be
00000210: c992 03be 4f70 f5bb 404c 8d3c 2885 533d
00000220: aa18 ed3c 8085 813b f2fc 19bd 96cc e2bd
00000230: 0e1a 61bd 786e 2cbc 0b1f 0b3d 5ce3 96bd
00000240: d376 2fbe f294 433d 6a6d b4bc 6330 ce3c
00000250: f239 45bd 73c1 583d cdaf 2abd 89fb 33bd
00000260: ff3e 23bd e98d 323c fa43 6a3c 29f0 ed3d
00000270: 76ba 49bd 63aa 10bd 4156 773d 851c 833d
00000280: 402c 1fbd 0ebf 2fbd 5cca d4bc 66b9 833c
00000290: 3019 4b3c 61e2 1cb9 ccd5 8b3d ee30 5dbd
000002a0: d417 933d a27e bf3c 3be7 a43b 8b41 5abd
000002b0: 528f 2e3d 9b72 63bd 898c 8d3d 7593 3bbd
000002c0: caa7 76bd c399 bcbd 895c 2b3c c0d9 4bbc
000002d0: 57d9 2cbe e8b0 0bbd 5e88 213e 6449 913c
000002e0: c7cf 923d 3612 13bd 81b4 a5ba 05d5 283a
000002f0: 7c42 913d 5129 4fbd 097c 13bc 9296 2c3c
00000300: 2c0b 4c3d f48f 0abe 034c a0bc ffd6 e4bd
00000310: 94b6 923d ebab b0bb 5aae 3d3d 6d95 1e3d
00000320: dc42 63bd 26e9 26bc 65f4 57bd a8a6 05bd
00000330: d110 61bd af49 e7bb bcbc babc b374 873d
00000340: 45b1 b9bc 1bdb 563d bedc e23c abdc 04bc
00000350: 02a5 7ebd 2530 aa3d 6feb 9c3c 47a0 dc3d
00000360: 8453 15be ed1e 8c3d b1f1 35bd 410e 8f3d
00000370: a2b1 3abc c476 733d 7bcd 8abb ec1e dc3d
00000380: 06ea 95bd 4f63 bdbd 7afa 5fbc d10a a83d
00000390: ea47 7e3d eea8 89bd c954 89bd 4e78 433d
000003a0: ccfe 26bd 9b4c 8dbc 3996 8e3c 0d0f 76bd
000003b0: 6a37 3f3d 6daa 4dbd d94a 2c3e 2fa5 893d
000003c0: bbe4 02be 9c3c cdbd d43e b03c 54c8 48bd
000003d0: 0349 5bbc 5785 06be 6115 8a3d 9b3e 8dbd
000003e0: cbfb 293d 7c5b a13c 50e3 a03b 4596 43bc
000003f0: 4598 66bd c36f 13bd 4cd2 75bd 94d9 72bd

arith.constant4 f4 [3]
0.17748761 0.051644433 0.15937267
00000000: 50bf 353e 1d89 533d 9732 233e

arith.constant5 f4 [256]
-0.0071898536 0.0464304 0.019118946 0.037430644 -0.0074308594 0.037352413 0.021615751 0.0155282095
0.022906851 0.026935715 0.02927857 -0.007756222 0.027113507 0.021545043 0.04015792 0.016900389
0.039950296 0.025755266 -0.0056117238 0.023337118 0.020566348 0.022951998 0.024910139 0.030093087
0.021837944 0.042061202 -0.0064123664 -0.009204509 -0.010215036 -0.009483967 0.02554848 0.027710268
0.022530902 0.031317256 0.02505503 0.032094486 0.022998253 0.024778735 0.031959534 0.030272705
0.036528584 0.046239313 0.042656276 -0.007913621 0.017318726 -0.008398148 0.04445719 0.030836888
-0.010937526 -0.008104932 -0.0075657223 -0.007117243 -0.0059910025 0.045241997 0.024340063 0.0317265
-0.009745221 0.03849632 0.03219507 0.030755736 0.029261416 -0.0074108564 0.020050606 -0.017226487
0.026077328 0.028455835 0.037557863 0.03068854 0.026838407 0.02167333 -0.08089263 0.025366172
0.042051736 -0.009244264 0.0004913305 0.028355822 0.054121234 0.029512178 0.022808082 0.044053525
0.017923132 0.0108803045 0.019886 -0.013517937 0.026705628 -0.011911602 0.041744366 0.02777999
-0.006680738 0.03564846 0.03930984 0.025240364 -0.0061177653 0.025566217 0.029329134 0.029440576
0.029692145 -0.010612276 0.025220953 -0.0071614827 -0.017952312 0.023527864 0.022398047 0.03664326
0.018692827 0.030659903 0.029195674 0.023446342 0.04639393 0.018548815 -0.008525746 0.02948106
0.045007225 -0.029019613 -0.035673946 0.045701172 -0.00672832 0.026523808 0.032624573 0.034214042
-0.01049391 0.0393234 -0.007830426 -0.011962189 0.02945482 -0.013640708 0.026175616 0.040134527
0.032025144 0.016910985 -0.011381533 0.04472158 0.026049525 0.025913032 0.020692583 0.023859607
0.039439425 -0.007584383 0.020315688 0.03932716 0.03740983 0.030320948 0.025858143 -0.0069191796
0.024649322 0.023840882 0.034425262 0.026989918 0.022358533 0.024643218 -0.0142947845 0.025845475
0.022132648 0.020133344 0.02060681 -0.008902904 -0.014311654 0.019266386 0.03541604 0.049118135
0.029229049 0.01397864 0.021782735 0.031679653 0.03801375 0.0136858 0.016563445 0.029947959
-0.008663666 0.036682766 0.017497452 0.020332618 0.029906472 0.0409986 0.019239329 0.043506905
0.026805162 0.020748947 -0.008849622 0.027807575 0.028262878 0.022016628 -0.008824669 -0.0023774244
0.030619087 0.06265242 0.022362588 0.030201102 -0.0073018293 0.0348031 0.024989953 0.021653295
0.03082181 0.022113366 0.028208889 0.04316697 -0.011130836 0.045693267 0.020137161 0.0485749
0.04215467 0.028561508 -0.011633466 0.04185033 0.03002396 0.026705926 0.03064896 0.025512457
-0.008215641 0.015277655 0.013705529 0.03824237 0.02561371 0.024294194 -0.008015972 -0.009134765
-0.00746832 0.03230491 0.02096894 -0.011700929 0.02571014 0.029073939 0.0340358 0.021853654
0.038318355 0.012966616 0.018447421 0.048422206 0.044261724 0.03216397 -0.0070010577 -0.007729802
0.035681903 0.011492671 -0.014387208 0.046424627 0.02267282 0.02734026 0.02402305 0.031218978
0.052107617 0.026493302 0.020485904 -0.012549839 0.02280752 0.02994812 0.011960117 0.04173204
-0.007260503 -0.0068746153 0.019287596 0.0138889905 0.030279923 0.011216294 0.027191596 0.032563698
00000000: dd98 ebbb ce2d 3e3d 569f 9c3c e050 193d
00000010: 917e f3bb d8fe 183d 8413 b13c 086a 7e3c
00000020: 26a7 bb3c 4aa8 dc3c 9dd9 ef3c e827 febb
00000030: 251d de3c 3b7f b03c a27c 243d af72 8a3c
00000040: eca2 233d b5fc d23c 8de2 b7bb 7c2d bf3c
00000050: c27a a83c d405 bc3c 5910 cc3c c785 f63c
00000060: 7de5 b23c 5e48 2c3d d41e d2bb 82ce 16bc
00000070: f75c 27bc a462 1bbc 0c4b d13c a500 e33c
00000080: ba92 b83c 8646 003d 3540 cd3c 8275 033d
00000090: d566 bc3c c6fc ca3c 00e8 023d 77fe f73c
000000a0: ff9e 153d 6f65 3d3d 59b8 2e3d 22a8 01bc
000000b0: 00e0 8d3c 6398 09bc be18 363d a49d fc3c
000000c0: 4f33 33bc 8cca 04bc e1e9 f7bb c337 e9bb
000000d0: 2c50 c4bb ac4f 393d d064 c73c a5f3 013d
000000e0: 6baa 1fbc 51ae 1d3d fade 033d 74f3 fb3c
000000f0: a3b5 ef3c c5d6 f2bb 2b41 a43c 901e 8dbc
00000100: 1fa0 d53c 361c e93c 46d6 193d 8866 fb3c
00000110: 38dc db3c 448c b13c 09ab a5bd b8cc cf3c
00000120: 713e 2c3d 4175 17bc a2cc 003a 784a e83c
00000130: 3aae 5d3d 86c3 f13c 04d8 ba3c 7871 343d
00000140: 88d3 923c 4e43 323c f7e7 a23c 567a 5dbc
00000150: c3c5 da3c e128 43bc 24fc 2a3d dd92 e33c
00000160: 18ea dabb 1f04 123d 5b03 213d e1c4 ce3c
00000170: 8977 c8bb 3e70 d13c a743 f03c 5d2d f13c
00000180: f13c f33c 1ddf 2dbc 2c9c ce3c dfaa eabb
00000190: ba10 93bc 82bd c03c 1c7c b73c 3e17 163d
000001a0: b321 993c 7a2a fb3c c42b ef3c 8b12 c03c
000001b0: 9007 3e3d aff3 973c 92af 0bbc 4482 f13c
000001c0: 7f59 383d 8aba edbc d81e 12bd 2731 3b3d
000001d0: 3d79 dcbb 7548 d93c 58a1 053d 0624 0c3d
000001e0: a6ee 2bbc 9311 213d 304b 00bc 0ffd 43bc
000001f0: 3c4b f13c 477d 5fbc 3f6e d63c 1a64 243d
00000200: cc2c 033d e888 8a3c 9c79 3abc fa2d 373d
00000210: d065 d53c 9147 d43c 7e83 a93c 3975 c33c
00000220: 3c8b 213d 6a86 f8bb 166d a63c 8415 213d
00000230: 0d3b 193d a363 f83c 75d4 d33c 49ba e2bb
00000240: 60ed c93c f44d c33c 8101 0d3d f619 dd3c
00000250: 3e29 b73c 93e0 c93c ac34 6abc e4b9 d33c
00000260: 874f b53c afee a43c 9dcf a83c 7cdd 11bc
00000270: 6d7b 6abc 8ad4 9d3c 6910 113d 1930 493d
00000280: c271 ef3c aa06 653c b571 b23c 86c2 013d
00000290: 4eb4 1b3d 683a 603c 10b0 873c 6c55 f53c
000002a0: 0df2 0dbc ab40 163d d156 8f3c 9790 a63c
000002b0: 6bfe f43c 26ee 273d cc9b 9d3c 4c34 323d
000002c0: 8096 db3c b2f9 a93c 01fe 10bc b6cc e33c
000002d0: 8d87 e73c 375c b43c 5895 10bc 90ce 1bbb
000002e0: e1d4 fa3c e94f 803d bf31 b73c 4d68 f73c
000002f0: 2f44 efbb b28d 0e3d bbb7 cc3c 4062 b13c
00000300: 057e fc3c 1727 b53c 5416 e73c d9cf 303d
00000310: 1c5e 36bc dd28 3b3d b0f6 a43c 79f6 463d
00000320: 60aa 2c3d d3f9 e93c 4b9a 3ebc 406b 2b3d
00000330: cff4 f53c 63c6 da3c 8713 fb3c 80ff d03c
00000340: e59a 06bc 214f 7a3c 288d 603c 08a4 1c3d
00000350: d8d3 d13c 9e04 c73c 6c55 03bc fba9 15bc
00000360: cfb8 f4bb 2752 043d 0ec7 ab3c 41b5 3fbc
00000370: 129e d23c 782c ee3c 1f69 0b3d 6f06 b33c
00000380: b5f3 1c3d ee71 543c 0c1f 973c 5d56 463d
00000390: c84b 353d 5ebe 033d 2169 e5bb 474a fdbb
000003a0: 3027 123d c24b 3c3c 53b8 6bbc c027 3e3d
000003b0: 5abc b93c aef8 df3c fdcb c43c f1be ff3c
000003c0: cc6e 553d 7b08 d93c 0ed2 a73c d79d 4dbc
000003d0: d6d6 ba3c c255 f53c 5ef4 433c 37ef 2a3d
000003e0: 83e9 edbb 7444 e1bb 0501 9e3c a68e 633c
000003f0: 9a0d f83c 8cc4 373c e9c0 de3c 8361 053d

arith.constant6 f4 [256]
0.0053283577 0.0023547795 0.0012003392 0.0052557574 0.005700034 0.0052203326 0.0043885545 0.0057062116
0.0053578955 0.005486386 0.0025480213 0.0028732258 0.005338703 0.0053758956 0.0071547744 0.0047513703
0.0005674461 0.004404935 0.0062361914 0.006105282 -0.007956704 0.0040632365 0.0039919983 0.003432385
-0.0229249 -0.0077017955 0.002602791 0.0055077127 -0.008625153 -0.0069658286 0.005306782 0.004417706
0.0041314764 0.0043873503 0.008106969 0.0013969248 0.0038242294 -0.008926003 0.0039881407 -0.007082677
0.005811409 0.003959949 0.0015377274 -0.0073993863 -0.01911157 0.004526229 0.002775419 0.0075632255
0.0032872877 0.002576768 -0.0067593595 0.005937157 0.0043502687 0.0011044085 -0.0064303996 0.007272262
-0.0059474353 0.0034165508 -0.010224543 0.0053996206 0.003954767 0.006536323 0.0022068343 0.004206045
0.006280079 0.004877393 0.0068044397 0.004566984 0.005911741 0.0044276686 -0.006977052 0.0031844743
-0.0075676953 0.0043349834 0.0054013496 0.006850742 0.004600755 0.0028730216 0.006640852 0.0036081139
0.0027606238 0.0068929396 -0.00742765 0.0052076634 0.0051932465 0.009335505 0.0053247614 0.0027686553
0.005342897 0.004128504 0.008167464 0.008576292 -0.012989737 0.006339695 -0.01026328 0.0056631844
-0.008922728 0.013156371 0.0073077963 -0.010179356 -0.010352023 0.0032547703 0.00294659 0.0010173419
-0.009330554 0.0045987107 -0.011683669 0.0057801274 0.0033304545 0.005405946 0.005568769 0.006049781
0.0064306976 -0.008118792 0.004801001 -0.0038665235 0.006002259 -0.004453884 0.0063206563 0.004968456
0.004639086 0.009540425 0.0052495487 0.0050309985 0.0042842496 0.006034186 0.005067007 0.0043032495
0.0050490787 -0.007564934 0.0018904788 0.0042079845 0.005579414 -0.007047507 0.006235585 -0.007827169
-0.006504149 0.0046425653 0.0053240503 0.006004432 0.010132734 0.0033955714 0.0065014386 0.0020403927
-0.007995566 -0.008216407 0.0048968364 -0.0076251584 0.005415133 0.00014375584 0.005604942 0.006158944
0.0020418088 -0.007399193 0.0051751966 0.0068316 -0.013118362 0.01086591 0.007634326 -0.008019369
-0.008743675 0.006916761 0.0066246707 0.0023883053 -0.0053445343 0.0057430333 0.0072283153 0.0033197845
0.0020167695 0.004524101 -0.009272763 -0.00831919 0.00916961 0.0040828674 -0.009260922 -0.006565179
0.003842517 0.0039423485 0.005110575 0.004608549 0.0037999968 0.0044097565 0.006638112 0.004395141
0.0055117123 0.006491983 0.0026413673 0.0047670742 0.003559548 0.0052294135 0.0038574354 0.0052392217
-0.0118719945 -0.011822879 -0.0017022828 0.0031406789 0.0035157658 -0.0069216006 -0.0077262702 -0.01012013
-0.0068162987 0.005512513 0.0045976825 0.0036989164 -0.009888272 0.0029721584 -0.010977436 0.0031764472
0.008951378 0.0033498842 -0.007605351 0.00561249 0.007942246 0.0027116295 0.006230171 0.0043673865
0.004556406 0.008647825 -0.009466729 -0.0084201135 -0.0072461446 0.0048571303 0.004876235 0.003643747
-0.008733028 -0.008054801 0.0075079245 0.0040983213 -0.005645043 0.0058894358 -0.007643001 -0.011369252
-0.009326891 0.0054652053 -0.0076152347 0.006440676 0.003980765 0.0052795643 0.0004700309 0.0057269484
-0.0062369457 0.0032504045 0.0011651943 0.0030598857 0.0057149217 0.0059578684 -0.014017364 -0.005329637
0.0064033433 0.0034818538 0.0054927184 0.0020413117 0.0059401514 -0.009665101 0.004572906 0.0040683816
00000000: 8199 ae3b a552 1a3b b354 9d3a 7d38 ac3b
00000010: 5ac7 ba3b 530f ab3b ddcd 8f3b 2cfb ba3b
00000020: 4991 af3b 24c7 b33b b4fc 263b bb4c 3c3b
00000030: 49f0 ae3b 4828 b03b 9972 ea3b 62b1 9b3b
00000040: aac0 143a 4657 903b f758 cc3b d10e c83b
00000050: d65c 02bc e624 853b 4fcf 823b ddf1 603b
00000060: 00cd bbbc 585f fcbb 9693 2a3b 0b7a b43b
00000070: 8450 0dbc 9b41 e4bb 84e4 ad3b 67c2 903b
00000080: 5661 873b c3c3 8f3b 18d3 043c 0519 b73a
00000090: ec9f 7a3b 5f3e 12bc f3ae 823b cd15 e8bb
000000a0: a26d be3b 76c2 813b 928d c93a 8d76 f2bb
000000b0: de8f 9cbc c350 943b cee3 353b efd4 f73b
000000c0: 896f 573b fede 283b 9e7d ddbb 7c8c c23b
000000d0: b38c 8e3b cdc1 903a 1ab6 d2bb 284c ee3b
000000e0: b4e2 c2bb 36e8 5f3b d784 27bc 4def b03b
000000f0: fd96 813b a72e d63b 89a0 103b ddd2 893b
00000100: 1fc9 cd3b 8ad2 9f3b c7f7 de3b a3a6 953b
00000110: 47b7 c13b fa15 913b c19f e4bb 9db2 503b
00000120: 6efa f7bb 7a0c 8e3b cefd b03b 307c e03b
00000130: eec1 963b 4e49 3c3b 819b d93b 1b76 6c3b
00000140: 95eb 343b 2bde e13b a563 f3bb 0ca5 aa3b
00000150: 1c2c aa3b f2f3 183c 567b ae3b 5472 353b
00000160: 7813 af3b 6748 873b d4d0 053c 9383 0c3c
00000170: e8d2 54bc 37bd cf3b 5127 28bc 3c92 b93b
00000180: a230 12bc d28d 573c 3d76 ef3b 50c7 26bc
00000190: 889b 29bc fc4d 553b 941b 413b 5458 853a
000001a0: 2edf 18bc c8b0 963b dc6c 3fbc 3967 bd3b
000001b0: c143 5a3b 5d24 b13b 387a b63b 3e3d c63b
000001c0: 9ab8 d23b af04 05bc b751 9d3b 8065 7dbb
000001d0: 99ae c43b e3f1 91bb 821d cf3b 6ece a23b
000001e0: 7903 983b 714f 1c3c 6804 ac3b 13db a43b
000001f0: e462 8c3b 6cba c53b 2309 a63b 4602 8d3b
00000200: be72 a53b 44e3 f7bb f1c9 f73a 22e3 893b
00000210: 84d3 b63b c6ee e6bb e153 cc3b 873d 00bc
00000220: c220 d5bb a920 983b 5f75 ae3b d4c0 c43b
00000230: c403 263c 3c88 5e3b 050a d53b 1cb8 053b
00000240: d6ff 02bc 1c9e 06bc a475 a03b 77dc f9bb
00000250: 6e71 b13b 2abd 1639 a9a9 b73b f8d0 c93b
00000260: decf 053b ee74 f2bb b294 a93b 9ddb df3b
00000270: 66ee 56bc ee06 323c 5e29 fa3b ac63 03bc
00000280: a241 0fbc ffa5 e23b c413 d93b 1d85 1c3b
00000290: 3421 afbb 0e30 bc3b 81db ec3b be90 593b
000002a0: c72b 043b e93e 943b c9ec 17bc 364d 08bc
000002b0: 223c 163c 93c9 853b 1fbb 17bc b720 d7bb
000002c0: bdd2 7b3b d12e 813b 9c76 a73b 5003 973b
000002d0: 5e09 793b b87f 903b 8584 d93b 1d05 903b
000002e0: 989b b43b b3ba d43b ca1a 2d3b 1e35 9c3b
000002f0: 4e47 693b 805b ab3b 07cd 7c3b c7ad ab3b
00000300: c182 42bc c0b4 41bc 221f dfba d9d3 4d3b
00000310: c368 663b 98ce e2bb a72c fdbb e7ce 25bc
00000320: 425b dfbb 50a2 b43b 28a8 963b 8569 723b
00000330: 6b02 22bc 8bc8 423b b4da 33bc f12b 503b
00000340: cda8 123c bb89 5b3b 4f36 f9bb fae8 b73b
00000350: 3220 023c 98b5 313b 7626 cc3b 4b1c 8f3b
00000360: e74d 953b 9baf 0d3c 571a 1bbc 84f4 09bc
00000370: 1171 edbb 9028 9f3b d3c8 9f3b eecb 6e3b
00000380: f914 0fbc 49f8 03bc 0905 f63b 364b 863b
00000390: 0efa b8bb 2bfc c03b 2472 fabb 1946 3abc
000003a0: d1cf 18bc 7715 b33b 3889 f9bb 4e0c d33b
000003b0: 1471 823b 3200 ad3b 7b6e f639 20a9 bb3b
000003c0: 4b5f ccbb bd04 553b 6fb9 983a 5d88 483b
000003d0: 3d44 bb3b 393a c33b 16a9 65bc 3ca4 aebb
000003e0: 23d3 d13b d02f 643b 43fc b33b 87c7 053b
000003f0: 9aa5 c23b 5f5a 1ebc 51d8 953b 0f50 853b

arith.constant7 f4 [256]
0.0031071298 -0.0010110657 -0.0097302515 0.00021717227 0.0036915126 -0.00023689485 -0.00065870583 -0.001927389
0.0010834897 -0.0024802259 -0.0023098611 -0.00031058647 0.003189723 -0.009191593 -0.0037097037 0.0024544946
-0.011321483 0.0024669785 0.0011637724 -0.000612288 0.004844999 -0.00089801505 0.0015319233 0.0015821237
0.0037087211 -0.0007366058 3.915792e-05 -0.00089329656 -0.002418838 0.0039649834 -0.0027089512 -0.0062412415
0.0036061308 -0.0016199417 0.0018150734 -0.0037885816 -0.003515002 -0.004694618 -0.01646507 -0.016576957
-0.0040980713 -0.0055176574 0.0014318969 0.003372338 8.8322035e-05 0.0032473446 0.0026540193 -0.0014165828
-0.012258104 -0.014346893 -0.0006115264 0.001040013 -0.015587501 0.0008686399 0.0019512994 0.0046930304
-0.012012752 0.0017037247 0.002112194 -0.0033737314 -0.00653207 -0.008926956 -0.016115073 -0.0007816915
0.0019672783 -0.011718805 -0.008358045 -0.009584472 0.00013831428 0.002235724 -0.0016130739 -0.011848781
-0.0046329163 -0.010320415 0.0010953486 0.0018751591 -0.013298883 0.006496491 -0.003528959 -0.0010387604
0.0006502853 -0.013918532 0.0014983084 -0.0019914238 0.0018091165 -0.0054424545 -0.0052662194 -0.009152427
0.0016642401 0.0005490923 0.0014918684 -0.0022376773 -0.004530423 -0.009258631 -0.007215293 0.0004293434
-0.0055829394 0.0023820985 -0.0009310613 0.005173747 0.0018919134 -0.0009006617 -0.00080928206 -0.0014914118
0.0042909384 -0.0011344578 -0.008361053 0.004759648 0.0018266519 -0.012836317 -8.1425474e-05 -0.009891941
-0.0071266345 -0.011209996 -0.002538353 0.0004233331 -0.005685286 -0.005373749 0.0028381755 -0.012304999
0.0044921315 -0.014409722 -0.011712184 -0.01946859 0.0039102123 -0.0017686011 -0.010492562 0.0035769027
0.0017940828 -0.017891753 -0.004843042 -9.752266e-05 0.0012230796 0.0012974383 -0.00050174556 -0.010390421
0.002556791 -0.017529048 0.0013703798 -0.00514002 -0.011593151 -0.0015134508 0.0005807062 -0.004815857
0.0016650152 -0.011528711 -0.01202441 0.0012648776 -0.0003715389 2.4888475e-05 0.0025086033 -0.006132473
-0.0056657293 -7.137071e-05 -0.012154876 -0.0012350557 0.003143568 -0.009543392 -0.00760588 0.0008744359
-0.020812392 -0.0008918832 -0.0075463136 0.0024514238 0.0035486724 0.00036070737 -0.004188538 0.003749793
-2.1609303e-06 0.0022768364 -0.0075413855 -0.0036512415 0.0023839325 0.0034184314 -0.009639519 -0.0047057504
-0.00034288754 0.0011292016 -0.012386219 0.0016675163 9.426211e-05 0.0012365275 -0.010481765 0.002649984
0.0019135164 -0.008205096 0.002890678 0.0031469157 0.0020411157 0.001584802 -0.0030195324 0.004479908
-0.0012389456 0.0018824649 -0.0026244223 -0.0039239186 -0.00313785 -0.015185099 -0.014711417 -0.00057733204
0.0023165857 -0.00622876 -0.00023666919 0.0048843757 -0.0087870015 0.0012292698 -0.0011329653 -0.012836419
0.0032320714 0.0013125215 -0.016923722 0.001700278 0.0015976607 -0.0030076941 0.0019088568 -0.0024295847
-0.0094728125 -0.0020565842 0.00020589787 -0.0003506368 -0.012110183 -0.0065820487 0.0011410782 0.0033407235
0.0015363968 -0.014347806 -0.009999561 -0.013891804 0.0026459142 -0.0020688304 0.0003153727 0.00019050468
-0.0026497722 -0.00294887 0.0037110657 0.007884548 0.0028091825 -0.0019559925 -0.002078097 -0.0005318729
-0.008676131 0.0024316774 0.0017801973 -0.011017028 -0.009526985 0.0029285667 -0.006653835 -0.010906362
0.0002657199 -0.0024306094 -0.00047556494 -0.0119852815 -0.005632515 0.0004510141 9.902625e-05 -0.00577239
00000000: fda0 4b3b bc85 84ba a26b 1fbc bdb8 6339
00000010: 4eed 713b fa66 78b9 00ad 2cba 71a0 fcba
00000020: e203 8e3a 498b 22bb 0a61 17bb 36d6 a2b9
00000030: ac0a 513b 5698 16bc 801e 73bb 96db 203b
00000040: be7d 39bc 08ad 213b b989 983a f481 20ba
00000050: ccc2 9e3b c568 6bba d1ca c83a 435f cf3a
00000060: 040e 733b c718 41ba 7f3d 2438 1e2c 6aba
00000070: 5e85 1ebb b1ec 813b a988 31bb 5483 ccbb
00000080: d654 6c3b 3954 d4ba c2e7 ed3a da49 78bb
00000090: f35b 66bb 4fd5 99bb c1e1 86bc 66cc 87bc
000000a0: 1d49 86bb 77cd b4bb 7dae bb3a 7102 5d3b
000000b0: 8839 b938 67d1 543b 0eef 2d3b a2ac b9ba
000000c0: 37d6 48bc 3b0f 6bbc d84e 20ba 0c51 883a
000000d0: b862 7fbc 70b5 633a bec2 ff3a fec7 993b
000000e0: 22d1 44bc 844f df3a bc6c 0a3b d219 5dbb
000000f0: fa0a d6bb 5e42 12bc c203 84bc 6eea 4cba
00000100: 74ed 003b 3b00 40bc 2ef0 08bc 3008 1dbc
00000110: 7508 1139 3985 123b c76d d3ba 6421 42bc
00000120: b8cf 97bb f516 29bc cd91 8f3a e6c7 f53a
00000130: 8fe3 59bc 84e0 d43b 1b46 67bb 0427 88ba
00000140: e877 2a3a 8e0a 64bc e362 c43a 8c82 02bb
00000150: e01f ed3a 9e56 b2bb 4090 acbb 10f4 15bc
00000160: a222 da3a f6f0 0f3a cc8a c33a ffa5 12bb
00000170: f173 94bb 83b1 17bc 446e ecbb 7f19 e139
00000180: 17f1 b6bb fb1c 1c3b 7712 74ba 8988 a93b
00000190: 14fa f73a 621a 6cba 0026 54ba 7a7b c3ba
000001a0: 009b 8c3b 16b2 94ba ccfc 08bc d2f6 9b3b
000001b0: 446c ef3a 6a4f 52bc f8c2 aab8 cf11 22bc
000001c0: 8b86 e9bb 22aa 37bc 7f5a 26bb cff2 dd39
000001d0: a34b babb 4616 b0bb af00 3a3b e89a 49bc
000001e0: bb32 933b c116 6cbc 76e4 3fbc 987c 9fbc
000001f0: 3d21 803b 68d0 e7ba ffe8 2bbc 786a 6a3b
00000200: 6e27 eb3a ba91 92bc 62b2 9ebb 1485 ccb8
00000210: be4f a03a ce0e aa3a 9387 03ba 963c 2abc
00000220: d68f 273b 1499 8fbc 519e b33a 9d6d a8bb
00000230: 33f1 3dbc fb5e c6ba 893a 183a 56ce 9dbb
00000240: a43c da3a ebe2 3cbc 0802 45bc 40ca a53a
00000250: 1bcb c2b9 98c7 d037 6167 243b e9f2 c8bb
00000260: 95a7 b9bb dcac 95b8 3f25 47bc 98e1 a1ba
00000270: 5204 4e3b e35b 1cbc bf3a f9bb 663a 653a
00000280: c07e aabc 45cd 69ba 1147 f7bb 11a8 203b
00000290: d890 683b 531d bd39 0140 89bb 16bf 753b
000002a0: 8004 11b6 fa36 153b ba1d f7bb ab49 6fbb
000002b0: c03b 1c3b c307 603b 13ef 1dbc b232 9abb
000002c0: 96c5 b3b9 b801 943a 91ef 4abc 9090 da3a
000002d0: 96ae c538 fa12 a23a b5bb 2bbc 5bab 2d3b
000002e0: f5ce fa3a ab6e 06bc 8771 3d3b 7c3c 4e3b
000002f0: 3dc4 053b 22b9 cf3a 59e3 45bb 31cc 923b
00000300: 1e64 a2ba 0abd f63a 80fe 2bbb 3794 80bb
00000310: 63a4 4dbb ecca 78bc 2808 71bc 1958 17ba
00000320: dcd1 173b a01a ccbb 672a 78b9 1d0d a03b
00000330: 5bf7 0fbc 731f a13a 0280 94ba d84f 52bc
00000340: 29d1 533b ea08 ac3a 9ea3 8abc dddb de3a
00000350: 9968 d13a bc1c 45bb 9b32 fa3a ab39 1fbb
00000360: db33 1bbc c2c7 06bb 4ae6 5739 add5 b7b9
00000370: ca69 46bc 3aae d7bb 3b90 953a 0af0 5a3b
00000380: ec60 c93a 0f13 6bbc 33d5 23bc 739a 63bc
00000390: 1367 2d3b 3795 07bb 9b58 a539 36c2 4739
000003a0: cda7 2dbb d441 41bb 5a35 733b 312e 013c
000003b0: 431a 383b 1c30 00bb af30 08bb 636d 0bba
000003c0: 5526 0ebc c75c 1f3b 8255 e93a c480 34bc
000003d0: 1217 1cbc 32ed 3f3b 6a08 dabb 99b0 32bc
000003e0: 5250 8b39 dc4a 1fbb 3f55 f9b9 ea5d 44bc
000003f0: f690 b8bb 1676 ec39 50ac cf38 5126 bdbb
